trained_neuralhydrology_models/nh_AORC_hourly_25yr_1210_112435_7/model_epoch007.pt (torch, 80453 bytes, 5 tensors)

lstm.weight_ih_l0 f4 [256, 10]
00000000: 91a3 86bd c305 01c0 8d1b 2e3f 125d 793d
00000010: 0d2a b6bf a36a fcbc 9cb6 2a3f 35d6 b43e
00000020: d11d 043d 0a90 b9be 41a2 6e3d dbab 973e
00000030: 3bfe e53d 32fe f1bd 97de 68be aa29 433f
00000040: 049b 453e f343 4ebd c0f1 0abf 8fd7 1d3f
00000050: 6732 abbe 39b0 3fbe d937 b33f 7f88 973e
00000060: 5f23 4dbf 05e6 183f b770 483e 6af9 a8be
00000070: ffdc c43f 0606 f2bd 6c0f dc3d 6c3a a840
00000080: 910c a13f 7dde 38bd 34d9 44bf b2e4 3f3f
00000090: 68d1 ea3d a3e8 333d e648 75bd 6252 2fbe
000000a0: 5bf0 a93d fd17 6340 983f 993f fe9a e93d
000000b0: c8e3 6dbf 17c4 083f f773 96be 1db4 b3bd
000000c0: e343 57bf 3e43 27bf 59c5 2f3f 41b2 96c0
000000d0: aafa b83f 386d 61be 8f25 2440 760f 29be
000000e0: cf13 993e 654c 233d f468 80bf d441 e93f
000000f0: db14 663e f784 9f40 3e98 803f 8628 043f
00000100: 3a59 793e 8151 a53d 70d1 903d ba0d 213e
00000110: 989b 1340 f4b4 bebe 65fe ebbe e2a7 0ec0
00000120: 3c20 e4bf 99f6 9f3f 578e 0bc0 295c 1a3f
00000130: cedb c9bd 890c 2c3e 80a8 0d3f a52b 1ebf
00000140: 70ee 65bd 9b12 973e f6f7 3cbf fa74 853f
00000150: 9019 6840 8c1c 863f 18eb e2bd 30d9 413e
00000160: d8f2 d6bd 3823 3d3f d3a8 ccbc 9651 2cbf
00000170: 1836 f5be 611a c0be 6a37 22bf 8a6e 943f
00000180: a8b5 fa3d ba89 7bbe c931 e2be 88bf 83be
00000190: 206c 893c 3ea2 a8be 18b7 403f 88e6 563e
000001a0: 69eb 363f 88ff a7be 96cb 5e3e 6db1 dabd
000001b0: 7df1 5b3f cb66 08be adc5 6a3d 49cf 8a40
000001c0: a426 21bf 422e 93bf 3a95 c3be 9e69 1e3f
000001d0: c6a5 083e cbdb 713c 7346 bcbd 9ee0 5ebe
000001e0: e73f 3d3d 7e9e 26c0 76ba 843f 5643 9d3e
000001f0: 2059 b1bf 225e 823e 9d6f 833e 036e e1bc
00000200: 1540 0abf c555 333e 55bd fa3b fb91 49c0
00000210: 45c0 cc3e 2054 05bf 2a9a a3bf baa4 1f3e
00000220: 99db 9f3d e87b f83d 2eec 033e 20ef 383e
00000230: f0c3 90bd 6efd 76be 18b2 91bd 729a 443d
00000240: fd21 85bc f673 91be b4ad fb3c 227b f83d
00000250: ba92 27bc 70c6 b83e 15de 6c3e 96ff a2c0
00000260: 1cd8 4440 b6d0 ce3e 247d 8cbe 6b86 b6be
00000270: 73c5 0b3f af03 13bf bde1 98be 81e9 bcbf
00000280: 5d43 623f c1e6 68bf 2106 16bf 0994 443e
00000290: a684 9bbf eb33 4a3f ebb3 e4bd ac42 a2be
000002a0: 8d01 bb3f 3615 a1be aa85 183e 7435 053f
000002b0: f07c 843e 91ca 4ebc 8d52 8b3f f960 7d3d
000002c0: 84e5 fa3d d73e eebd a3b4 2c3f a510 e6bf
000002d0: 989d e53c a13a 4cc0 5989 823e 941e bcbe
000002e0: ffdf 8c3e 1d7c b03f c607 b43d c438 9c3e
000002f0: 3551 913e 7e8e 583d d4e8 953d 386e e1c0
00000300: 93eb 953e 33c5 cdbd 83f9 6b3f 53db cb3f
00000310: 9520 e33d 6e63 0abe b3ce 093f fddf 3bbe
00000320: b793 2dbf d935 bc40 5171 533e 0bbe 0dbf
00000330: c59c 72c0 e903 3d3f 770b 5fbe cfcf 74bf
00000340: 1ee1 d5be ff1e f4be ed19 5ebe b083 76c0
00000350: 0c2e bebf 9ad6 c23e b7b2 803e fc35 bc3e
00000360: 5acb aa3c d6a4 14bc bedc debe 9fde aabc
00000370: ebf7 96bc 8f0b 7bbf ce3e 9a3f 1494 2b3e
00000380: ef59 c3bf 1389 693f 52e4 673e d3a8 9bbe
00000390: 9902 ed3f 1625 943f 2409 a03f fe57 28bf
000003a0: d6c0 193e d08f 213f da22 13c0 8b58 943f
000003b0: a156 943d 87fc 77be ae96 613e 43ea b8be
000003c0: 47d8 093d f6d5 11bf bd15 e53f 211d 453e
000003d0: 301f 23c0 05e5 3fbf 45e1 0f3e 8b21 4dbe
000003e0: de1c d2be af5a 05be e111 d43d 86a1 69bf
000003f0: 41f0 38bf 462e c53d b2c6 f33f 6af3 153f
-0.065741666 -2.0159767 0.6801079 0.060879774 -1.4231583 -0.030812567 0.6668489 0.35319677
0.032254998 -0.36242706 0.058260206 0.29623303 0.11230131 -0.11816062 -0.22741161 0.7623545
0.19297415 -0.05035777 -0.5427513 0.6165704 -0.3343689 -0.18719567 1.4001418 0.29596326
-0.80132097 0.5972598 0.19574247 -0.33002788 1.5379943 -0.11817555 0.10745129 5.2571316
1.258196 -0.045134056 -0.76893926 0.74958336 0.11465722 0.04392303 -0.059883974 -0.1712127
0.08297797 3.5483391 1.1972532 0.114065155 -0.9292569 0.5342421 -0.2938535 -0.08774588
-0.8408796 -0.6533698 0.68660504 -4.7092595 1.4451497 -0.2201432 2.5647924 -0.16509804
0.29897925 0.039867777 -1.0032029 1.8223214 0.22468893 4.984981 1.0046461 0.51624334
0.24350443 0.08072186 0.07071197 0.15727893 2.3063717 -0.3724743 -0.46092525 -2.2289968
-1.7822337 1.2497131 -2.1805627 0.60296875 -0.098563775 0.16801657 0.55335236 -0.61785346
-0.056135595 0.29506382 -0.7381586 1.0426323 3.6265602 1.0477462 -0.11079997 0.18930507
-0.104955375 0.73881865 -0.024982845 -0.6731199 -0.47892833 -0.37520126 -0.63365805 1.1596234
0.122416794 -0.24564257 -0.44178608 -0.25732064 0.01677519 -0.3293628 0.7527938 0.20986378
0.7145296 -0.32812142 0.2175735 -0.106783725 0.85915357 -0.13320462 0.057317425 4.3378034
-0.62949586 -1.1498492 -0.38199788 0.6187991 0.13344488 0.014761875 -0.091931246 -0.21765372
0.04620352 -2.6034236 1.0369403 0.30715436 -1.3855324 0.25462443 0.25671092 -0.027518278
-0.5400403 0.17513187 0.0076519647 -3.149535 0.3999044 -0.5208149 -1.2781422 0.15590182
0.07805557 0.12133008 0.12883064 0.18059969 -0.07068622 -0.24120113 -0.07114047 0.047998853
-0.016251558 -0.28408784 0.030722477 0.12132861 -0.010227853 0.36088896 0.23131593 -5.0936995
3.0756903 0.4039361 -0.27439225 -0.35649428 0.5459816 -0.57427496 -0.29859725 -1.475876
0.8838404 -0.909771 -0.586031 0.19197096 -1.2149856 0.7898547 -0.11167129 -0.31691492
1.4609848 -0.31461495 0.14894739 0.5203469 0.2587657 -0.012621538 1.0884567 0.06186006
0.12250808 -0.116330795 0.6746313 -1.797383 0.028029248 -3.1910784 0.25495413 -0.3674208
0.27514645 1.3787876 0.08790545 0.3051206 0.2838227 0.052870266 0.07319799 -7.0447044
0.2928129 -0.100473784 0.921776 1.5926307 0.11090199 -0.13514492 0.5383102 -0.18347163
-0.6780352 5.881573 0.20648696 -0.5536811 -3.7908185 0.7383409 -0.21781717 -0.9562959
-0.41773313 -0.47679898 -0.21689577 -3.8517876 -1.4857802 0.38054353 0.2513635 0.36759937
0.020848919 -0.009072503 -0.43527788 -0.020858107 -0.018428763 -0.9806451 1.2050416 0.16755706
-1.526182 0.91224784 0.22645691 -0.3040224 1.8516418 1.1573818 1.250279 -0.65759265
0.15014967 0.63110065 -2.2990022 1.1589521 0.07243086 -0.24217425 0.22030136 -0.36116228
0.033653524 -0.56967103 1.7897259 0.19249393 -2.5487785 -0.7495883 0.14050777 -0.20032327
-0.4103765 -0.13022874 0.10354973 -0.9126209 -0.722416 0.096279666 1.9045012 0.58574545

lstm.weight_hh_l0 f4 [256, 64]
00000000: b335 b7bf 191f f6be 41cb 563e 9899 6a3b
00000010: 40dc dcbf c5e3 85bf ad55 403f 84ff 9d3f
00000020: 0cc7 4c3f 55b3 633f 619f 563f 5b04 c63e
00000030: e408 eb3f 6b8d 413f ed99 4abf 1bca 35c0
00000040: bdb8 0740 8d2f 5e3f 4c69 79bf 57ff 8dbd
00000050: d88d 383f 4623 38bf b92f c6be 7fdc adbe
00000060: 5229 eb3e 35de 03bf 8cf3 c73f 5c57 62bf
00000070: 10ca 83bf b575 a5bf b099 103f 3488 9dbf
00000080: 661d d6be 6756 05be eee6 223f 9315 cdbe
00000090: 667e 0240 281d a7be 888f fa3e aeec db3f
000000a0: 7ac3 8f3c 1c76 b1bf 8ebb 88bf 4134 2dbf
000000b0: 0a84 d6bf 061e b93e ef71 313f 80ba 02bc
000000c0: 7757 83bf 6b04 943f 64c0 5bbf 20dc 793f
000000d0: 8462 0640 82b7 1b3f 56a1 e53e d125 b8be
000000e0: 0e91 2440 ebb2 4fc0 c273 783d 0ee1 613f
000000f0: 8b83 b3be 5c8c 3040 6d5d fa3f cdb5 5bbf
00000100: 870d afbe cc2d 1140 767c 74bd f2e1 223f
00000110: c1a1 23c0 4b05 60bf 3248 163d 0940 f33f
00000120: dfd4 463e 500c 1fbc 1669 e8be d28f 273f
00000130: c585 9c3e cf5c 573f 946e 8bbf 2f29 78bf
00000140: 1769 1a40 8a8a 293f d2ab ae3d 20c3 333f
00000150: e754 6d3f 33a7 8a3e 1000 8c3f 9703 0ac0
00000160: 77d8 c5bd 43f8 d13c 3919 803e 1ca2 3ebf
00000170: ee5c 543e 4295 f13e f82c 053f 3909 cebe
00000180: 592a 93be 0230 a5be f7fc 823e d078 7c3d
00000190: 5251 163f 2ee3 52be 34f4 d6bf 6d9c 3a3f
000001a0: 1a6a 5b3f 380f 993f 6592 40bf 3721 87bf
000001b0: 1306 2cbf cc19 e5bd 0aa9 b8be 3939 643f
000001c0: c9a5 a0bd b29b 8fbe 8270 03c0 2628 553f
000001d0: 9f56 1dbd 661a 94be 56cd 413f e281 b83d
000001e0: e0fb 043d 3bc9 81bf 946b d0be 282b ec3f
000001f0: 1941 4ebf a220 523f 4438 3bbf 618b 453e
00000200: 0517 67be a4be f83e a558 d53e 06dd 6d3f
00000210: 872d f1bf a3cf f3be 649c 5a3f f04e a43f
00000220: 2bff 5cbe 7d6f 923f 0572 ca3f 1756 be3e
00000230: 33d9 bebf cf91 ac3e 2725 403f 6612 adbf
00000240: b0b2 5b3f 9ef5 cf3e ac4f 7abf 3fd0 463f
00000250: 059b c43f 35c6 573f 1fc7 803f 7c39 e4bf
00000260: cc2e c03f 8d01 023f d112 853f 89f1 1abf
00000270: 51f1 943f 4609 e63d a6ea bb3f 81ee 8f3f
00000280: 2541 0ebf b1a0 fcbf 5420 5e3f 76f7 82be
00000290: cfa0 863f c9d7 a53e b6e6 cdbc 6f02 93bf
000002a0: 5812 81be 04ee 94be 70e5 af3e 7bcb d03e
000002b0: 7f42 a03f ae1b 9e3f 32ae 23bf 07f8 48bf
000002c0: 987d c33e bbf9 1340 039c 7dbf 28f3 0d40
000002d0: ebab db3f aeb9 823f 7725 cebf eb0a 553e
000002e0: d796 16bf d933 713f 6ab0 b03c 1eb2 5540
000002f0: da8f 96bf 9398 8fbe 3e41 1b3f fd7d bcbf
00000300: f8d5 fbbe 7acc 153f dfef e43a 4726 613e
00000310: 3dbe acbf 1a62 8dbe d3a8 be3e 7170 a13f
00000320: 6d11 06be 996f 75be 382c cdbe 5319 063f
00000330: b8d6 4cbe ffc8 0abf e38c 0c3f 7a47 8bbf
00000340: d9e7 b93f dae5 613f 4fa6 c3bf 4503 043e
00000350: aa21 023f 1edd 773f 2b2d b2bd 3c87 b1be
00000360: d1da adbf 7bd1 9dbf 86cc 3dbf 1139 d7be
00000370: ad36 e53e 84aa 78bf 8855 0bbf b112 30c0
00000380: dcf8 cabe 50d4 bdbd a7f2 833f 6866 2b3f
00000390: 33b0 b4be b8e1 2ebf c16c 49c0 0255 2640
000003a0: 265a 13bf 0c70 3d3f 81ef 96bf 6ced a3bf
000003b0: e921 00bf faa0 cd3e dc35 86bf 8bf8 14be
000003c0: 008b 333f bb10 00bf 9587 98bf e8e3 88be
000003d0: 6747 1fc0 833e 263f d11e bfbe bd58 74bf
000003e0: 9613 5e3f a6a3 0dc0 5cbd d03e e0ec 0040
000003f0: 6ac1 09bf 2838 073f 7e99 c7be 0893 35bd
-1.4313263 -0.480706 0.20975973 0.0035797115 -1.7254715 -1.0460135 0.7513073 1.2343602
0.7999122 0.88945514 0.8383694 0.38675198 1.8362088 0.7560641 -0.7914112 -2.8404605
2.1206505 0.86791307 -0.97426295 -0.06933468 0.72091436 -0.71928823 -0.38708284 -0.33957288
0.45929962 -0.51510936 1.56212 -0.8841455 -1.029604 -1.2926546 0.5648451 -1.2307191
-0.41819304 -0.13021241 0.6363362 -0.40055522 2.0389647 -0.32639432 0.4893763 1.7181604
0.017549265 -1.3864169 -1.0682237 -0.6765786 -1.6759045 0.3615572 0.69314474 -0.007979035
-1.0261067 1.1563848 -0.8584044 0.9760151 2.099763 0.60826886 0.44849652 -0.35966352
2.5713534 -3.2452953 0.06065727 0.8823403 -0.35061297 2.7585669 1.9559761 -0.8582428
-0.34190008 2.2684202 -0.059689008 0.63626015 -2.5567477 -0.87508076 0.036689945 1.9003917
0.19417141 -0.009707525 -0.45392674 0.6545383 0.30570808 0.8412599 -1.0893121 -0.9693784
2.4126642 0.6622702 0.08528866 0.7021961 0.92707676 0.27080688 1.0937519 -2.156469
-0.09660428 0.025631076 0.25019243 -0.7446611 0.20738575 0.47184187 0.5202174 -0.4024141
-0.28743246 -0.3226319 0.25583622 0.061638653 0.58717835 -0.20594475 -1.6793275 0.72894937
0.85708773 1.1957769 -0.7522338 -1.0557011 -0.6719677 -0.11186561 -0.36066467 0.89149815
-0.07844121 -0.28048474 -2.053742 0.83264387 -0.038412686 -0.2892639 0.7570394 0.09009148
0.03246677 -1.0139536 -0.40707076 1.845067 -0.8056808 0.82081044 -0.7313273 0.1929145
-0.22567375 0.48582947 0.41669193 0.9291538 -1.8842019 -0.47619352 0.85394883 1.283659
-0.21581714 1.1440274 1.5816046 0.37175056 -1.4910034 0.33704993 0.7505669 -1.352124
0.8581953 0.4061708 -0.9777782 0.7766151 1.5359808 0.84286815 1.0060767 -1.7830043
1.5014281 0.50783616 1.0396367 -0.60524803 1.1636144 0.112322375 1.4680984 1.1244661
-0.5556815 -1.9736539 0.8676808 -0.25579423 1.0517825 0.32391194 -0.025134426 -1.1485118
-0.25209308 -0.29087842 0.34354734 0.40780243 1.2520293 1.2352197 -0.63937676 -0.7850346
0.38181758 2.3121173 -0.9906618 2.217966 1.716184 1.0212915 -1.6105183 0.20804946
-0.58823913 0.9421974 0.021568496 3.3389964 -1.176265 -0.28046092 0.60646427 -1.4725949
-0.49186683 0.5851513 0.0017466507 0.21987258 -1.3495556 -0.27613908 0.37238178 1.2612439
-0.13092585 -0.23968352 -0.400728 0.5238239 -0.20003784 -0.54212946 0.54902476 -1.0881188
1.4523879 0.8824135 -1.5285128 0.12891872 0.5083262 0.96821773 -0.08700021 -0.34673488
-1.3582402 -1.2329553 -0.74140203 -0.42035726 0.44768277 -0.97135186 -0.54427385 -2.7511408
-0.3964299 -0.09269011 1.0308427 0.66953135 -0.3529068 -0.6831317 -3.1472628 2.5989385
-0.5755943 0.73999095 -1.1791841 -1.280683 -0.5005174 0.40161878 -1.0485187 -0.14547937
0.7013397 -0.5002553 -1.1916376 -0.2673638 -2.488733 0.64939135 -0.373282 -0.95447904
0.86748636 -2.2131133 0.4076947 2.0144577 -0.5381075 0.5282006 -0.38984293 -0.044329673

lstm.bias_ih_l0 f4 [256]
00000000: 4ab3 f3be 72e3 1ec0 88b2 5ebf bfb7 a2bf
00000010: abff 83bf 5433 3dbf 6f69 7dbe 670b a9bf
00000020: afe8 c9be 5290 c9bf 5a47 18c0 50a4 17c0
00000030: 4af8 d7bf 12de f6bf caca 16c0 217c bc3e
00000040: 0adb d5be 02d8 50bf 1433 90bf 23a1 8fbf
00000050: df4d 08bf 02c5 b6bf 716b b3bf a1a7 96bf
00000060: aa55 d8bf fcdd 99bf 0499 6ebf b440 afbf
00000070: db5f f3bf ddf1 67bf 3827 dfbe a516 22c0
00000080: 9d59 c5bf a34e bdbf 9b85 2b3f b174 ee3d
00000090: 180c 0dc0 db38 9bbf 7c78 ebbf d81c f2bf
000000a0: 83db b0bf 6ff5 d6bf 43a1 66bf 1bfb 93bf
000000b0: 1169 9dbf bcd9 d4bf 6650 00c0 2072 b3bf
000000c0: 4746 32be c3af dcbf b2ba 62bf 76f8 023d
000000d0: 79b7 babf a20b bfbf 9532 c0bf ed9c cdbf
000000e0: 4c91 c8bf 2893 f23e d51a aabf 123f 0a40
000000f0: aac3 05c0 2721 bebf 708c 96be f239 293e
00000100: a199 043f fd65 e23d fd3b 99bd d0b5 0b3f
00000110: 4982 a83e 1a28 01bf 6a13 133f a9b5 f63e
00000120: e1aa bf3e 26b6 0f3f 7b98 753e a238 623e
00000130: 2f4c 46be 96cd 233f 6fb9 85bf 367a a83e
00000140: 77e8 983f 8304 f4be 101d 363f 127d 5ebe
00000150: 860b f43e c2c4 663f 29ee 163d cba3 303f
00000160: 1a75 4c3f 706e f03d f68f a0bf 1531 6f3e
00000170: 15b3 303e acb4 c33c f8a7 073e 6c02 00bd
00000180: 4dd1 273f a047 86bd d3d4 233f 63cb 183e
00000190: 6dd3 8e3e f035 f83e c1c5 c93e bed8 1f3f
000001a0: 801b 7abe 87bc 433f 9bb4 0c3f a40c 243e
000001b0: d2f6 bb3e e4f0 d53e a537 19be 0817 7cbd
000001c0: c80c 2ebf 38d7 0a3f 5d1b ca3e 482e 2f3e
000001d0: 73d8 1ebd 2720 b2be 15fd cf3e e91f e0bd
000001e0: c85e 26be 8074 ff3e 23b7 ec3e f743 d63e
000001f0: 5730 72be 4ee7 123f 79ef 7a3e cfa3 633f
00000200: 1b3b 5d3e 5e4c 7abf 3cec f1bd 2364 ce3e
00000210: e14a 243f 5978 003d f46f 85bf cb75 9abd
00000220: 4016 003f bf8a 9e3e 0d9d a7bc 2801 9bbc
00000230: 8763 d3be bddc 1e3f dbf5 80be 5247 633f
00000240: 1f88 9cbf f820 0d3f cbc9 e03e d591 753f
00000250: cd2c 50bf 5eb6 01be 9bec d83e 683d 663f
00000260: 6e6e e63d bfe8 fbbe 858f d2bc c977 dc3d
00000270: 6a60 b9bd bc43 6cbe c8a2 bdbf 6983 eabd
00000280: 132c 123f 542d 3f3f f0e2 5bbf ad08 6fbf
00000290: 2bf1 a63d 3b73 1cbf 22f4 36bf 934f 0fbf
000002a0: d0a0 933e 8f10 8b3e 1490 c33e cd55 9e3e
000002b0: a172 91be 5f6b 0b3f 01ca 953d eb59 2d3f
000002c0: 49bc 27bf bd31 a43e 4f9f 473f d10c d7be
000002d0: c0b3 b8be c86b 49bf 7cbe 24bf 851a 353b
000002e0: c132 a83d 8dd5 b83f 5bbe 823e 7730 89bf
000002f0: e824 fdbd 9ba2 78be 2d42 f43e 5722 8ebf
00000300: e986 c7be 5ebb a2be 9e52 e03d 6298 923e
00000310: 10f9 833d a639 a5be d2d9 55be 4b70 d1be
00000320: 8e77 30be c599 3bbf 257a b2bf 836f 5c3f
00000330: 1fdd 9a3f 4916 5bbf d256 3e3f 8205 49bf
00000340: 2d1b 493e 4239 ea3e 3d35 30be 9f2a 48bf
00000350: 06bc df3d 4e30 9dbd b176 debe 2c59 553e
00000360: cce5 e63c dbed 4abf 5f3e debf f8f3 c8be
00000370: 86d6 4bbe 4422 81bf 515c 923e 3efd 94be
00000380: 084c b9be c571 52bf 667f babf f0e1 cdbe
00000390: 2469 8cbe 59be bfbb c077 82bf 0bd9 783e
000003a0: f7c3 77bf 6f48 1bbf 47a1 a4bd 686a 6ebf
000003b0: 042c 88be f418 97bf 11d1 b4bf 51f5 91be
000003c0: 9be2 01bf 73bc 4dbf a7e1 ccbe 1b9a 26bf
000003d0: bef4 be3d eada e3bd 6db9 adbe dd4c cfbd
000003e0: e123 b5bf 08d6 b4be 2964 95bf 1c44 4a3e
000003f0: 46fd 8e3d 6193 a4bd 005f 63bf c479 6fbf
-0.47597724 -2.4826322 -0.8699117 -1.2712325 -1.0312399 -0.73906446 -0.24747251 -1.3206605
-0.39435336 -1.5747168 -2.379355 -2.3694038 -1.6872647 -1.928652 -2.3561273 0.36813453
-0.41768676 -0.815796 -1.1265588 -1.122105 -0.5324382 -1.4278872 -1.4017164 -1.1769906
-1.6901143 -1.2020869 -0.93202233 -1.3691621 -1.9013628 -0.9060343 -0.4358461 -2.532632
-1.5417973 -1.4789623 0.6700074 0.11643351 -2.2038631 -1.2126726 -1.8396144 -1.8915052
-1.381699 -1.679365 -0.90089816 -1.1561006 -1.2297689 -1.6628947 -2.0049071 -1.4019203
-0.17409621 -1.7241138 -0.88566124 0.031975232 -1.4587241 -1.4925425 -1.5015436 -1.6063515
-1.5669341 0.47377896 -1.3289438 2.1600995 -2.0900674 -1.4853867 -0.2940402 0.1652601
0.5179692 0.11054609 -0.07482145 0.545743 0.329119 -0.50451815 0.574515 0.4818547
0.37435058 0.5613731 0.23983948 0.22091916 -0.19364999 0.63985574 -1.0447215 0.3290574
1.1945943 -0.47659692 0.71138096 -0.21727398 0.47665042 0.9014398 0.03684822 0.6899993
0.7986618 0.11739814 -1.2543933 0.23358567 0.17255814 0.023889862 0.13247669 -0.03125231
0.6555374 -0.0655663 0.6399662 0.14921336 0.2789568 0.4847865 0.39408687 0.624401
-0.24424553 0.76459545 0.5496308 0.16020447 0.36711746 0.41785347 -0.14962633 -0.0615454
-0.6798825 0.5423465 0.39474002 0.17107499 -0.03878064 -0.34790155 0.40622774 -0.109435864
-0.16247094 0.4989357 0.46233472 0.41848728 -0.23651253 0.5738419 0.24505414 0.8892183
0.21604578 -0.9777278 -0.11812636 0.40310773 0.64176756 0.031364772 -1.042479 -0.075419985
0.5003395 0.3096523 -0.02046063 -0.01892145 -0.4128687 0.6205557 -0.25187573 0.887807
-1.2229041 0.5512843 0.43903956 0.9592565 -0.8131836 -0.12667224 0.42368016 0.8993745
0.112515315 -0.4920101 -0.025703201 0.10765035 -0.09051593 -0.23072714 -1.4815302 -0.11450846
0.570985 0.7467854 -0.85893154 -0.93372613 0.08151468 -0.6111333 -0.7146627 -0.55980796
0.28833628 0.2716107 0.3819586 0.30924836 -0.28407767 0.5446071 0.0731392 0.6771533
-0.65521675 0.32069197 0.7797746 -0.42001966 -0.36074638 -0.78680086 -0.64353156 0.0027634215
0.082128055 1.444017 0.25535855 -1.0717915 -0.12360555 -0.24280779 0.47706738 -1.110423
-0.38970116 -0.31783575 0.10953258 0.28631884 0.06443989 -0.32270545 -0.20883873 -0.40905985
-0.17233106 -0.7328151 -1.3943526 0.86107653 1.2098731 -0.8558088 0.7435123 -0.7852403
0.19639273 0.4574681 -0.17207809 -0.78190035 0.109245345 -0.07675229 -0.4344993 0.20834798
0.028185748 -0.7926919 -1.7362784 -0.39248633 -0.19906053 -1.0088582 0.28586057 -0.29099458
-0.3619082 -0.8220485 -1.4570129 -0.4021144 -0.27423966 -0.0058515486 -1.0192795 0.24301545
-0.96783394 -0.606574 -0.08038574 -0.93131113 -0.2659608 -1.180449 -1.4126302 -0.28507474
-0.507364 -0.80365676 -0.4001591 -0.65078896 0.093240246 -0.11125739 -0.3393053 -0.101220824
-1.4151574 -0.35319543 -1.1671191 0.19752544 0.06981902 -0.08035923 -0.88816833 -0.93545175

lstm.bias_hh_l0 f4 [256]
00000000: 4a47 e5be b75a 16c0 6946 6ebf 3e4a 91bf
00000010: 1227 6bbf 4015 3cbf 4212 c6bd b77a a3bf
00000020: 3a4c c1be 3b08 d4bf 715e 12c0 26bc 1cc0
00000030: ef3f e9bf 4511 01c0 85ba 1fc0 eca0 ae3e
00000040: fccd b2be 8ad7 55bf 31fe 88bf 4420 87bf
00000050: 3862 34bf 654e c5bf 2730 b8bf dbcc 8cbf
00000060: dcc3 d8bf 3062 98bf 7d8e 49bf 4a78 b3bf
00000070: 52b8 efbf 7d6e 66bf 2902 e6be ea8c 1cc0
00000080: e994 c0bf b550 d7bf 599f 283f 7ca1 8a3e
00000090: 6040 11c0 5aa9 9ebf 1235 d4bf 5fb6 f8bf
000000a0: fa66 adbf 4eb5 d6bf 2928 46bf 8507 8dbf
000000b0: 5d4f 94bf ed23 c6bf 7be3 f4bf 7efb b4bf
000000c0: 38aa 83be 297e edbf a67d 71bf a64b 88bc
000000d0: f024 c1bf 5508 cdbf 5f79 d5bf 5251 c9bf
000000e0: 9521 b8bf bb36 253f ce0c 9fbf 45ad fd3f
000000f0: 56b6 0ec0 c162 bcbf 256c 88be e6a2 ad3c
00000100: 19e2 6540 7904 4840 500e 4240 fb1f 6340
00000110: 9400 5040 e879 2340 4136 5e40 328f 6140
00000120: c384 5640 3581 6540 a8df 4840 c964 4740
00000130: c7f6 2e40 b636 6540 efc7 0040 dd59 5c40
00000140: 0079 8940 4fa5 1e40 44a5 6640 d0cb 2b40
00000150: 2bd3 5e40 0eee 7740 6b1b 4140 6e8a 6940
00000160: 3e07 7540 e5e8 4440 feb9 e73f ce24 4740
00000170: c03d 4540 93ac 3d40 8b58 4340 a3cf 4140
00000180: 17f7 6540 211f 4040 9ad0 6a40 be19 4640
00000190: 2c2c 4f40 ed44 6040 dedf 5b40 a94a 6d40
000001a0: 7342 3240 3e2e 7140 1356 6640 4c46 4e40
000001b0: 140a 5f40 229d 5740 a767 3340 ec47 3740
000001c0: 251a 1940 fb14 6740 e72d 5540 559e 5240
000001d0: 7acf 3a40 3d2e 2940 9ad6 5640 ff41 3640
000001e0: bf56 3d40 1d45 5a40 c7c0 5840 850c 5b40
000001f0: 5009 3440 4885 6740 a5e5 4840 8d7b 7f40
00000200: 3223 843e 4a37 7fbf fb65 3739 0dea de3e
00000210: d53c 273f 66f2 553d 0ad3 8bbf b522 e6bd
00000220: 2371 bf3e 8b24 dd3e bded e5bc f35b 043e
00000230: 0632 cebe 123c 3a3f 348f 16be ad53 763f
00000240: c8b0 84bf f02c 133f e571 b53e ebda 653f
00000250: 6f6d 6dbf b4a2 e0bd cf88 873e 434c 713f
00000260: 6264 543e ee51 02bf f1e6 30be 9553 a03e
00000270: e4fb cebd 2f8d a7be bc15 bfbf e63b 31bd
00000280: dca3 033f 1747 5c3f 96dc 58bf a4d2 62bf
00000290: d8d5 50bc 54e5 13bf 888d 28bf c207 a6be
000002a0: 93db ac3e e864 913e dccb f63e 29ec be3e
000002b0: 12e9 91be 8159 093f 767c 093e 6ac7 2e3f
000002c0: adb4 25bf 5d3c cf3e 07ec 693f 3472 c9be
000002d0: ea2d cebe 2f04 28bf 5154 2ebf 50e6 20bd
000002e0: afad 463c 90ad c93f 38be 4e3e f859 88bf
000002f0: e3fc 64be 268a 9ebe 3dc8 db3e 4df9 90bf
00000300: 1c3a f4be 7db8 f1be 9275 1c3c 1429 993e
00000310: c36d 563c be6d 8fbe fb9d 75be 2797 cebe
00000320: f4ab 6ebe 14c7 10bf 83c2 c9bf 25d7 403f
00000330: cf64 8d3f 2dad 7fbf db2d 3f3f eb00 60bf
00000340: 9b91 613e d698 eb3e 126d 46be 751f 7fbf
00000350: e779 6a3d 2bd8 67be 3198 8bbe 5f71 79bc
00000360: 1c67 243e b01e 4fbf cc4c e2bf 377e d0be
00000370: eb16 b7bd 73f0 93bf 6b26 4e3e 744c a0be
00000380: 47ae adbe 1156 50bf 13ca b3bf 81ec 03bf
00000390: 63e7 a9be b980 e3bd a26b 86bf 81d7 7a3d
000003a0: f11c 56bf 1656 38bf f540 2cbe bb7b 6ebf
000003b0: 891e 7fbe e27b b2bf 8ff3 b9bf 963a 1ebe
000003c0: 01a6 b9be 51ba 73bf 6309 b3be 37d3 1cbf
000003d0: c4a8 3cbd cd16 38be 51a1 7abe 0d07 57be
000003e0: b428 b1bf a95d b8be c470 92bf 39da e73c
000003f0: 6e36 8d3d 48fd b8bd 9966 54bf a177 79bf
-0.44780952 -2.3492868 -0.9307619 -1.1350782 -0.9185649 -0.73469925 -0.09671451 -1.2771825
-0.3775347 -1.6565012 -2.2870142 -2.4489837 -1.8222636 -2.016679 -2.4957592 0.3410715
-0.3492278 -0.8353201 -1.0702573 -1.0556722 -0.7046237 -1.5414549 -1.4389695 -1.1000017
-1.6934772 -1.1904964 -0.78733045 -1.4021084 -1.8728125 -0.9001234 -0.44923523 -2.4461007
-1.5045444 -1.6821505 0.65868145 0.27076328 -2.2695541 -1.2395432 -1.6578696 -1.9430655
-1.3547051 -1.677408 -0.7740503 -1.101792 -1.158672 -1.5479714 -1.9131922 -1.4139249
-0.25715804 -1.8554126 -0.9433235 -0.016637634 -1.5089397 -1.6018168 -1.6677665 -1.5727942
-1.4385248 0.6453664 -1.2425783 1.9818503 -2.229879 -1.4717637 -0.26645008 0.02119584
3.591925 3.125273 3.0321236 3.548827 3.2500353 2.5543156 3.4720614 3.524365
3.3518531 3.5860112 3.138651 3.1155264 2.733812 3.5814643 2.012203 3.4429848
4.2960205 2.4788396 3.603837 2.6843147 3.4816387 3.8739047 3.0172985 3.649074
3.828567 3.0767148 1.8103635 3.1116214 3.081894 2.963658 3.0522792 3.0282981
3.5932062 3.0019 3.668982 3.0953212 3.237071 3.504207 3.4355388 3.707682
2.7853057 3.7684474 3.5990036 3.2230406 3.4849901 3.3689656 2.8032014 2.8637648
2.3922207 3.6106555 3.3309267 3.2909138 2.9189134 2.6434472 3.3568482 2.847778
2.9584196 3.4104683 3.3867662 3.4226391 2.8130684 3.6175098 3.1390164 3.991916
0.25808102 -0.9969374 0.0001749023 0.43537942 0.653272 0.052233122 -1.0923779 -0.112370886
0.37391004 0.43191943 -0.028067464 0.12925701 -0.4027254 0.7274791 -0.14703065 0.9622143
-1.0366449 0.57490444 0.35438457 0.8978717 -0.9274511 -0.10968533 0.26471564 0.9425699
0.20741418 -0.50906265 -0.17275597 0.31313768 -0.10106638 -0.32724902 -1.4928508 -0.043270014
0.51421905 0.86045974 -0.8471159 -0.8860266 -0.012746297 -0.577718 -0.6584096 -0.32427794
0.33761272 0.28397298 0.48202407 0.3728955 -0.2849813 0.536522 0.13426384 0.6827303
-0.64728814 0.4047574 0.91375774 -0.39344943 -0.40269405 -0.65631384 -0.68097407 -0.039282143
0.01212637 1.5756092 0.2018975 -1.0652456 -0.22362094 -0.30964774 0.42926207 -1.132608
-0.47700584 -0.47211066 0.009549515 0.29914153 0.013087693 -0.28013414 -0.23986046 -0.40349695
-0.23307782 -0.5655377 -1.5762485 0.75328285 1.1046389 -0.9987362 0.74679345 -0.875014
0.220282 0.46015042 -0.19377545 -0.99657375 0.05724516 -0.22641055 -0.2726455 -0.015224784
0.16054958 -0.809062 -1.7679687 -0.40721294 -0.08939918 -1.1557754 0.20131843 -0.3130833
-0.33922026 -0.81381327 -1.4046043 -0.5153275 -0.33184347 -0.11108536 -1.0501597 0.061240677
-0.8363791 -0.72006357 -0.16821654 -0.9315755 -0.24913992 -1.3944056 -1.4527453 -0.15452036
-0.36259463 -0.9520617 -0.349681 -0.6125979 -0.046059385 -0.17977448 -0.244756 -0.20998783
-1.3840547 -0.36008957 -1.1440663 0.028302299 0.06895147 -0.090326846 -0.8296905 -0.97448164

head.net.0.weight f4 [1, 64]
00000000: d4f9 a43a aada 4fc0 e5d5 8f3c fc10 a33e
00000010: 7b6f af3a 3d14 353c 5dda 14be 5874 d7bc
00000020: 6734 a2bb f3f9 953e 3a13 14c0 3df1 3abf
00000030: 3cb1 26bf 627e 0a3f 7e98 5bc0 c539 0a3e
00000040: 4edd 04bd 6755 0ebc fafa 173c d393 cd3c
00000050: 1e3d e13b da7b 663c 47d4 0a3f a418 8b3c
00000060: c4cd 30bc 3020 4bbc 6b54 46c0 f2af 0cbc
00000070: 990c d13b 105c d8be 4566 31bc de26 0140
00000080: d421 9b3e dbb9 123f eab1 f7be c7d8 0dbd
00000090: cddb 543f 3af3 05bc 0f7c f4bf 227e 803b
000000a0: b34b 643e 1494 8abb 1173 3abc 43fe 123f
000000b0: 6fce 0d3d e45d 713f cfdd 1e40 3c52 df3e
000000c0: 9f41 603b 7216 fe3d 7e8e 51bc 0b4b 4bbd
000000d0: a785 87bf cc71 fcbe 9a20 96be 6cd5 07be
000000e0: 574e 21bf 4bf8 97bb d8d0 4f3f ca8c 3b3c
000000f0: 6153 35bf c5bb 053c 9e11 26bb 65fc d93b
0.0012586662 -3.2477212 0.017558048 0.31848896 0.0013384664 0.011052188 -0.14536424 -0.026300594
-0.0049500945 0.2929226 -2.3136735 -0.7302435 -0.6511419 0.54099095 -3.4311824 0.134986
-0.032437615 -0.008687354 0.009276146 0.025094902 0.006873741 0.014067614 0.5423016 0.016979523
-0.010791246 -0.012397811 -3.0989025 -0.0085868705 0.0063796756 -0.42257738 -0.010827606 2.0179973
0.30299246 0.5731484 -0.48377925 -0.034630563 0.8314789 -0.0081756655 -1.910036 0.003921286
0.22294502 -0.004229078 -0.011379973 0.5741922 0.0346207 0.9428389 2.4822881 0.43617427
0.00342188 0.12406625 -0.01279032 -0.049632113 -1.0587662 -0.4930557 -0.29321748 -0.13265008
-0.6301016 -0.004637753 0.81178045 0.011447141 -0.7083035 0.0081624435 -0.002534009 0.006652402
